…
&lt;/span&gt;&lt;span class=&quot;n&quot;&gt;model&lt;/span&gt;&lt;span class=&quot;w&quot;&gt; &lt;/span&gt;&lt;span class=&quot;o&quot;&gt;%&amp;gt;%&lt;/span&gt;&lt;span class=&quot;w&quot;&gt; 
  &lt;/span&gt;&lt;span class=&quot;n&quot;&gt;summary&lt;/span&gt;&lt;span class=&quot;p&quot;&gt;()&lt;/span&gt;&lt;span class=&quot;w&quot;&gt;
&lt;/span&gt;&lt;/code&gt;&lt;/pre&gt;
&lt;/div&gt;

&lt;div class=&quot;highlighter-rouge&quot;&gt;&lt;pre class=&quot;highlight&quot;&gt;&lt;code&gt;## ________________________________________________________________________________
## Layer (type)              Output Shape      Param #  Connected to               
## ================================================================================
## input (InputLayer)        (None, 19)        0                                   
## ________________________________________________________________________________
## embedding (Embedding)     (None, 19, 50)    250150   input[0][0]                
## ________________________________________________________________________________
## conv1d_1 (Conv1D)         (None, 19, 32)    1632     embedding[0][0]            
## ________________________________________________________________________________
## conv1d_2 (Conv1D)         (None, 19, 16)    1616     embedding[0][0]            
## ________________________________________________________________________________
## conv1d_3 (Conv1D)         (None, 19, 8)     1208     embedding[0][0]            
## ________________________________________________________________________________
## average_pooling1d_1 (Aver (None, 9, 32)     0        conv1d_1[0][0]             
## ________________________________________________________________________________
## average_pooling1d_2 (Aver (None, 9, 16)     0        conv1d_2[0][0]             
## ________________________________________________________________________________
## average_pooling1d_3 (Aver (None, 9, 8)      0        conv1d_3[0][0]             
## ________________________________________________________________________________
## concatenate_1 (Concatenat (None, 9, 56)     0        average_pooling1d_1[0][0]  
##                                                      average_pooling1d_2[0][0]  
##                                                      average_pooling1d_3[0][0]  
## ________________________________________________________________________________
## bidirectional_1 (Bidirect (None, 20)        4020     concatenate_1[0][0]        
## ________________________________________________________________________________
## dense_1 (Dense)           (None, 1)         21       bidirectional_1[0][0]      
## ================================================================================
## Total params: 258,647
## Trainable params: 258,647
## Non-trainable params: 0
## ________________________________________________________________________________
&lt;/code&gt;&lt;/pre&gt;
&lt;/div&gt;

&lt;p&gt;모형 훈련 과정입니다. mini batch 100개씩 해서 10회 반복하여 훈련시켰고, 슬슬 낡아가고 있는 제 컴퓨터에서도 그리 긴 시간은 걸리지 않았습니다. Validation이 적당히 내려가면서 training도 적절히 되고 있는 모습을 보여주네요.&lt;/p&gt;
…
